weight/dehazer.pthEpoch49.pth (torch, 10507 bytes, 10 tensors)

e_conv1.weight f4 [3, 3, 1, 1]
00000000: cd07 bcbe edc9 a8be ca7e 6bbe f117 0000
00000010: 3304 0280 f9fe 0080 d764 a8be 867b 9cbe
00000020: a18d 7bbe
-0.36724702 -0.32966557 -0.22997585 8.589e-42 -1.85177e-40 -9.1467e-41 -0.32889435 -0.3056299
-0.24565746

e_conv1.bias f4 [3]
00000000: 1ce5 f53e 9f00 0080 3eca 0e3f
0.4802636 -2.23e-43 0.5577735

e_conv2.weight f4 [3, 3, 3, 3]
00000000: 42b5 0080 054d 0100 5855 0100 287d 0000
00000010: 3cf8 0180 1425 0180 d854 0000 0272 0180
00000020: 851b 0180 d3dc 0000 dde0 0000 a409 0200
00000030: e68d 0180 efd7 0000 678f 0000 f798 0000
00000040: 8a6b 0100 90ab 0180 85b2 0100 5a47 0180
00000050: 179d 0180 ebbc 0100 0736 0100 3810 0080
00000060: 1676 0100 95b3 0180 65bc 0080 f8b4 d2bc
00000070: 9030 143e 30ee e1bc 4f29 a13d 1d18 a33e
00000080: 455e b73d a9fd 83bc 3b1a 233e 3631 35bb
00000090: bef5 0100 9a66 0100 25d1 0000 2a2c 0180
000000a0: 058e 0000 5c75 0000 a19e 0000 4f33 0180
000000b0: 6820 0100 b9c0 1e3c 8bd8 323e 8b95 e7bb
000000c0: 0c75 103e fa1f bc3e dd48 073e 8115 7abc
000000d0: 6034 513e 4e90 28bc f23d 0180 c646 0180
000000e0: 13d5 0000 c19a 0180 93c0 0100 f459 0100
000000f0: 1737 0000 c9aa 0080 59a2 0000 e7db 0080
00000100: 096b 0180 f357 0180 3ed7 0000 a8ce 0080
00000110: 1049 0080 ea25 0000 9ba0 0080 1e08 0000
00000120: 91ac 0100 0cd0 0080 9430 0100 5694 0180
00000130: de96 0180 2ad9 0080 1947 0180 e4f5 0080
00000140: ccbd 0000
-6.5023e-41 1.19465e-40 1.22451e-40 4.4898e-41 -1.80885e-40 -1.05137e-40 3.0436e-41 -1.32734e-40
-1.01708e-40 7.9217e-41 8.0666e-41 1.8713e-40 -1.42739e-40 7.7462e-41 5.1443e-41 5.4873e-41
1.30413e-40 -1.5338e-40 1.55876e-40 -1.17432e-40 -1.48189e-40 1.59606e-40 1.11217e-40 -5.818e-42
1.34197e-40 -1.56257e-40 -6.7583e-41 -0.025721058 0.1447165 -0.027579397 0.07869207 0.31854334
0.08953527 -0.016112166 0.15927975 -0.002764774 1.79991e-40 1.28642e-40 7.5027e-41 -1.07679e-40
5.0947e-41 4.21e-41 5.6905e-41 -1.10242e-40 1.0346e-40 0.009689503 0.17465417 -0.0070673875
0.1410715 0.36743146 0.13211389 -0.015263916 0.20430136 -0.010288311 -1.14057e-40 -1.17224e-40
7.6437e-41 -1.47351e-40 1.60918e-40 1.24105e-40 1.9763e-41 -6.1266e-41 5.824e-41 -7.8886e-41
-1.30232e-40 -1.23386e-40 7.7214e-41 -7.4134e-41 -2.621e-41 1.3601e-41 -5.7614e-41 2.912e-42
1.5374e-40 -7.4633e-41 1.09262e-40 -1.45048e-40 -1.45956e-40 -7.7904e-41 -1.1734e-40 -8.8209e-41
6.8086e-41

e_conv2.bias f4 [3]
00000000: acf7 0080 b4f3 1d3e 8c97 0080
-8.8848e-41 0.15424997 -5.4365e-41

e_conv3.weight f4 [3, 6, 5, 5]
00000000: 7ed8 373c dffe 823d e48f c13d 4b56 923d
00000010: e7b4 b13c 226d 343d 34e9 c53d 76da 4f3e
00000020: 0df0 043e f8df 8c3d 07da a63d b327 3c3e
00000030: 67ab 8d3e 6652 3e3e c2c3 8f3d 2433 e83c
00000040: 4f9f ca3d 323a 323e c042 f43d 9789 f43c
00000050: 63e8 bf3c e0d1 ca3c 8605 a43d f0f6 ab3c
00000060: 4429 d1b9 a230 0100 708c 0080 648b 0080
00000070: 6e41 0080 fc24 0080 1a12 0200 f971 0180
00000080: 8a0c 0080 cc24 0180 23b7 0080 2eb6 0080
00000090: c3af 0000 12e0 0000 bbd5 0100 b07d 0180
000000a0: 7457 0080 bb1a 0000 2eb8 0180 c227 0000
000000b0: 7aa8 0100 4d71 0100 128d 0000 ef15 0180
000000c0: 7a58 0080 ac57 0180 8776 16bd eaa9 17bd
000000d0: c846 073d 18d6 75bb 1008 56bd 780f b7bc
000000e0: d275 3f3c 6006 133e fce9 343d 5938 8dbc
000000f0: 37ec 253c df36 de3d 7c2b 7a3e c83f 1a3e
00000100: 7408 2c3c 45d3 39bd 94da 233d ff91 173e
00000110: 571f 5b3d f857 27bd efea 3dbd eb1f bdbc
00000120: 1e2f 65bb f11d d1bb f938 75bd 914f 0100
00000130: 2c94 0080 4cd9 0080 d51f 0100 8828 0080
00000140: e994 0080 c91e 0200 5dfe 0080 bbee 0080
00000150: 31a3 0080 3d37 0180 d278 0080 2064 0080
00000160: fd35 0180 1a56 0180 69ab 0180 3e04 0080
00000170: 576c 0000 069e 0000 41bc 0000 0825 0200
00000180: 4da7 0080 6f09 0100 5f47 0100 cfa2 0000
00000190: 46a2 4ebd aa95 03bd 25da 973c b4ee c0bc
000001a0: 9a01 78bd bced 1dbd 2fc2 7b3b d336 a23d
000001b0: 15ae 063c 0db6 13bd b11b ffbb 49a9 763d
000001c0: b11c e73d 1309 863d b2a3 49ba 4f6c 17bd
000001d0: 0c2e 7f3b f5e4 8a3d 1c9e b33c e6fe 2cbd
000001e0: 767e 84bd c85e 0cbd f721 353c ea8d 7cbc
000001f0: a837 b7bd 9636 0000 bf3f 0100 b5b8 0100
00000200: c0d0 0000 8eb1 0080 9521 0000 b429 0100
00000210: 9c2a 0100 4803 0180 ce58 0080 b498 0000
00000220: 370a 0100 b65c 0080 dd25 0200 b655 0000
00000230: 19a7 0080 db15 0000 9af0 0080 af86 0080
00000240: 8166 0100 af8d 0100 a718 0280 5d07 0180
00000250: d18a 0000 f932 0100 83d6 0080 915e 0100
00000260: 2f36 0200 090e 0000 2520 0180 3540 0180
00000270: c707 0080 9727 0100 526d 0000 1ec6 0100
00000280: 378f 0000 611b 0000 293f 0180 62e3 0000
00000290: efd9 0000 90cf 0100 ac12 0080 6ef4 0080
000002a0: 9024 0100 db45 0080 e215 0100 1479 0180
000002b0: 88ce 0080 1ce9 0000 cf0a 0180 856f 0000
000002c0: 7bed 0100 be24 0180 6fc9 0000 6ead 0080
000002d0: 163a 0100 f95f 0000 2451 0180 9bb3 0000
000002e0: 2b32 0180 97ba 0100 4b2b 0100 5e15 0180
000002f0: f284 0180 fc24 0180 f029 0180 052e 0180
00000300: cb0e 0000 f148 0000 0d22 0100 2e82 0100
00000310: 3763 0080 4892 0080 63dd 0080 049d 0000
00000320: bc91 0180 b60f 0000 f221 0100 f8b2 0080
00000330: fed5 0000 b647 0180 8fce 0080 523e 0100
00000340: 6301 0080 7d02 0100 9d38 0080 a488 0100
00000350: dc48 0180 6988 0080 cbd8 0000 3c1d 0080
00000360: d1c6 0080 7759 0180 5234 0080 b47b 0100
00000370: 06c1 0000 7efc 0000 220b 0180 9859 0180
00000380: 3a08 0280 f454 0180 bbd1 0080 a0ea 0000
00000390: 20d7 0180 2ddb 0000 3936 0180 b628 0000
000003a0: e2aa 0100 09ea 0000 152d 0100 c629 0080
000003b0: 7c3c 0080 4179 0100 7efb 0000 86e1 0000
000003c0: f399 0000 6af6 0180 c6f1 0000 8480 0080
000003d0: 159c 0000 8f99 0100 9ef6 0000 5a0f 0100
000003e0: acb8 0180 f5cb 0000 c00b 0080 f655 0180
000003f0: afeb 0000 4f83 0100 aa59 0100 4150 0080
0.011221049 0.06396269 0.09451273 0.07145365 0.021692706 0.04404939 0.096636206 0.2029818
0.12982197 0.06878656 0.08147054 0.18374519 0.27669832 0.1858612 0.0701976 0.028344698
0.09893667 0.17405012 0.11926794 0.029850764 0.02342624 0.02475828 0.08008866 0.020991772
-0.00039894332 1.09282e-40 -5.038e-41 -5.0004e-41 -2.3472e-41 -1.3267e-41 1.90165e-40 -1.32721e-40
-4.498e-42 -1.05036e-40 -6.5697e-41 -6.5354e-41 6.3051e-41 8.0381e-41 1.68508e-40 -1.36924e-40
-3.1372e-41 9.589e-42 -1.57907e-40 1.4262e-41 1.52273e-40 1.3248e-40 5.0606e-41 -9.9704e-41
-3.174e-41 -1.23286e-40 -0.03673413 -0.037027277 0.033026487 -0.0037511643 -0.052253783 -0.022346243
0.011685805 0.143579 0.044168457 -0.017238783 0.010127119 0.108503096 0.2443065 0.15063393
0.010500062 -0.045367498 0.040003374 0.14801787 0.053496685 -0.040855378 -0.04636663 -0.023086509
-0.003497071 -0.006381743 -0.059868786 1.20379e-40 -5.3154e-41 -7.7951e-41 1.03255e-40 -1.454e-41
-5.3419e-41 1.94715e-40 -9.1248e-41 -8.564e-41 -5.8542e-41 -1.11651e-40 -4.3342e-41 -3.5918e-41
-1.11203e-40 -1.22723e-40 -1.53326e-40 -1.522e-42 3.8865e-41 5.6688e-41 6.7533e-41 1.96955e-40
-6.0016e-41 9.522e-41 1.17439e-40 5.8405e-41 -0.050447725 -0.032125153 0.018536637 -0.023551323
-0.060548402 -0.0385568 0.0038415303 0.07920613 0.008220215 -0.03606229 -0.0077852835 0.060220037
0.11284769 0.065446995 -0.0007691934 -0.036968525 0.0038937358 0.06781951 0.021925978 -0.042235278
-0.06469433 -0.034270078 0.011055461 -0.015414694 -0.089461625 1.9582e-41 1.14703e-40 1.58096e-40
7.4885e-41 -6.3695e-41 1.2047e-41 1.06796e-40 1.07121e-40 -9.3013e-41 -3.1857e-41 5.478e-41
9.55e-41 -3.3258e-41 1.97254e-40 3.0747e-41 -5.9943e-41 7.84e-42 -8.6312e-41 -4.8315e-41
1.28607e-40 1.42662e-40 -1.92515e-40 -9.4477e-41 4.9798e-41 1.10121e-40 -7.6952e-41 1.2576e-40
2.03108e-40 5.035e-42 -1.03367e-40 -1.14869e-40 -2.79e-42 1.06038e-40 3.9217e-41 1.62907e-40
5.1376e-41 9.822e-42 -1.14493e-40 8.157e-41 7.818e-41 1.66295e-40 -6.698e-42 -8.7685e-41
1.04952e-40 -2.506e-41 9.9686e-41 -1.3527e-40 -7.409e-41 8.3624e-41 -9.5713e-41 4.0006e-41
1.77027e-40 -1.05016e-40 7.2261e-41 -6.2215e-41 1.12673e-40 3.4429e-41 -1.20943e-40 6.443e-41
-1.09832e-40 1.58771e-40 1.07366e-40 -9.95e-41 -1.39527e-40 -1.05103e-40 -1.0688e-40 -1.08344e-40
5.307e-42 2.6166e-41 1.0405e-40 1.38535e-40 -3.5592e-41 -5.2476e-41 -7.9419e-41 5.6327e-41
-1.44115e-40 5.636e-42 1.04013e-40 -6.4202e-41 7.6766e-41 -1.1756e-40 -7.4099e-41 1.14192e-40
-4.97e-43 9.2728e-41 -2.0309e-41 1.40853e-40 -1.17973e-40 -4.8935e-41 7.777e-41 -1.0487e-41
-7.1322e-41 -1.2393e-40 -1.8769e-41 1.36212e-40 6.9244e-41 9.0577e-41 -9.5829e-41 -1.23976e-40
-1.86622e-40 -1.22311e-40 -7.5237e-41 8.4168e-41 -1.69008e-40 7.8625e-41 -1.11287e-40 1.4604e-41
1.53137e-40 8.3956e-41 1.08008e-40 -1.4985e-41 -2.1698e-41 1.35333e-40 9.0218e-41 8.0903e-41
5.5227e-41 -1.80232e-40 8.6732e-41 -4.6103e-41 5.5992e-41 1.46922e-40 8.847e-41 9.7343e-41
-1.58083e-40 7.3166e-41 -4.215e-42 -1.22672e-40 8.4547e-41 1.3894e-40 1.24001e-40 -2.879e-41

e_conv3.bias f4 [3]
00000000: 31a5 563c 227c 0080 89a2 87bd
0.013100908 -4.453e-41 -0.06622798

e_conv4.weight f4 [3, 6, 7, 7]
00000000: 3a62 0080 9253 0100 da6b 0000 805a 0180
00000010: e0f0 0080 345b 0080 3dee 0180 de2d 0000
00000020: 418b 0100 628f 0100 f0e7 0080 03a6 0000
00000030: 473c 0180 040f 0080 3084 0100 d673 0080
00000040: 79a7 0100 7417 0100 c3a9 0000 6d13 0000
00000050: 8790 0000 c7f6 0080 1906 0180 6b13 0180
00000060: 02d9 0000 3b1e 0000 19e8 0000 9519 0000
00000070: 43a6 0180 d803 0100 a432 0280 48e7 0100
00000080: b6b5 0080 9175 0080 0711 0000 e890 0000
00000090: 9d57 0180 58d2 0000 d334 0080 4698 0000
000000a0: 22b4 0000 9a90 0080 3949 0100 afe1 0000
000000b0: 04b7 0080 24e3 0100 f145 0100 c5c9 0000
000000c0: 20d8 0080 337a 6b3c a16e 0cbd 4814 10bc
000000d0: 9fab 793c ccb0 c6bc b5f3 163c 8eba d33b
000000e0: 07d0 39bc 91d3 73bd 3ce0 babc 877e 0c3d
000000f0: dad0 dbbc e894 713b 34ee 73bb 7d98 19bd
00000100: e7f0 80bd 2a0e 023d 22b1 bf3d b23f 04bc
00000110: f921 ddbb 1bca 47bb 0fd4 43bb f41f 0fbb
00000120: ea21 d93d e323 303e 9f6d 3f3d b6df c83c
00000130: 1d8e 943c cc6e 00bd 32a4 4abd 68f1 e83c
00000140: b548 ba3d 0c1d 073c ede0 1bbc 3556 b4bc
00000150: 68b5 3dbd 4567 acbd b3ac 34bd 5c90 443c
00000160: 5680 f5bc 6251 f6bc 8a5c 12bd 62ea 23bc
00000170: 4d81 80bd f978 29bd 2b90 713b 01cb 6abb
00000180: 04dc 973c e383 2c3b da91 0000 498f 0080
00000190: fe82 0000 9cce 0180 c1d5 0080 ca6a 0100
000001a0: 8310 0100 5bab 0100 53da 0180 0a23 0000
000001b0: 2ede 0080 0008 0180 138b 0180 574e 0100
000001c0: 2aa9 0080 e21d 0200 6133 0100 b1df 0080
000001d0: 7219 0080 0705 0000 e814 0080 7ed7 0180
000001e0: 7ed1 0180 b342 0180 c2a3 0180 2cbc 0080
000001f0: 5fe6 0180 fbed 0000 06ea 0100 28dc 0180
00000200: fa66 0000 a265 0100 70a1 0180 b0ac 0000
00000210: cf04 0080 28ff 0000 b98e 0080 3e72 0180
00000220: 98ae 0080 9189 0100 c9ef 0000 70a0 0080
00000230: a418 0200 69a7 0180 c348 0080 e6ad 0000
00000240: 52cb 0180 b3da 0000 2186 0080 5e05 f33c
00000250: 9819 fdbb 1fb6 7abb 2bb9 b03c 872b b63c
00000260: 40f6 4a3d c53d 8a3c 7943 283d 367c cabb
00000270: f646 013d e791 913d de22 083d 686f 363d
00000280: 4938 ad3c 0c2b 3b3c af37 773c 5c1d d53d
00000290: 83db 0a3e 0498 573d 3d1d 3f3d b112 4b3c
000002a0: 7bff f93c 4ac4 5e3d 1e9a 263e cdac 593e
000002b0: ebb8 e43d 0663 803d 5291 103d b178 9fbb
000002c0: 7b14 b73b f715 d43d 73eb 143e 254c 5c3d
000002d0: 56c6 043d 6ad3 be3b d1ea 2fbb 0553 04bd
000002e0: 40e0 b23c 9952 553d 1576 233c c520 d53c
000002f0: 2d78 433b d71d dc3c 07a5 fcbb c168 093c
00000300: 98b0 203d 2e41 ec3c 3621 593d c5bf 0d3d
00000310: 820b 0080 c6e4 0000 4c62 0100 edf1 0100
00000320: fced 0000 e563 0180 b626 0100 8380 0080
00000330: e2c6 0080 22ee 0000 045f 0180 0b42 0180
00000340: 2321 0180 2c70 0000 d309 0080 de2c 0100
00000350: d509 0280 ac13 0080 6b65 0000 1b52 0100
00000360: a11b 0100 d395 0000 1fef 0080 ef81 0180
00000370: dd8f 0000 bf14 0200 4b4a 0180 f732 0180
00000380: 1cc8 0180 df5b 0000 d452 0080 835a 0100
00000390: d7bb 0000 b70a 0100 833a 0000 f16e 0100
000003a0: 5728 0180 e0c7 0080 0e72 0000 795b 0100
000003b0: 2a2e 0100 3a2f 0180 23ee 0080 129c 0180
000003c0: 6775 0000 15e9 0080 8304 0080 ccde 0080
000003d0: 2767 0080 6579 33bc e4f3 34bd 9c80 86bd
000003e0: 4883 5dbd ddfc 09bd 88eb 9d3b cf8e 91bd
000003f0: 401f 3b3b d9c4 83bd 0b4b b5bd 7af9 a4bd
-3.5237e-41 1.21815e-40 3.869e-41 -1.24301e-40 -8.641e-41 -3.2718e-41 -1.77299e-40 1.6454e-41
1.4179e-40 1.43272e-40 -8.3203e-41 5.9554e-41 -1.13459e-40 -5.387e-42 1.39255e-40 -4.1554e-41
1.51913e-40 1.00249e-40 6.0899e-41 6.969e-42 5.1847e-41 -8.8527e-41 -9.4023e-41 -9.8801e-41
7.7848e-41 1.0845e-41 8.3261e-41 9.177e-42 -1.51479e-40 9.3214e-41 -2.01837e-40 1.74804e-40
-6.5186e-41 -4.2175e-41 6.108e-42 5.1983e-41 -1.23265e-40 7.5457e-41 -1.895e-41 5.4625e-41
6.462e-41 -5.1873e-41 1.18103e-40 8.096e-41 -6.5654e-41 1.73318e-40 1.16926e-40 7.2381e-41
-7.7531e-41 0.014372396 -0.03428519 -0.008793898 0.015238672 -0.024254225 0.009213378 0.006461448
-0.0113411015 -0.059527937 -0.022812001 0.034300353 -0.026832987 0.0036862437 -0.0037220838 -0.03749894
-0.062959485 0.03175179 0.09359957 -0.008071827 -0.0067484346 -0.0030485454 -0.0029881035 -0.0021839114
0.10602172 0.1720119 0.046735402 0.024520736 0.018134171 -0.031355664 -0.049472995 0.028435424
0.09095899 0.008246671 -0.009514076 -0.022013763 -0.04631558 -0.084181346 -0.04411001 0.011997309
-0.029968422 -0.030068103 -0.035732783 -0.010004612 -0.06274662 -0.041375134 0.0036859612 -0.0035826566
0.018537529 0.0026323728 5.2322e-41 -5.1401e-41 4.6991e-41 -1.65953e-40 -7.668e-41 1.30144e-40
9.7759e-41 1.53306e-40 -1.70155e-40 1.257e-41 -7.9703e-41 -9.4705e-41 -1.41726e-40 1.19939e-40
-6.0685e-41 1.94391e-40 1.10267e-40 -8.0245e-41 -9.128e-42 1.803e-42 -7.5e-42 -1.6914e-40
-1.66987e-40 -1.15763e-40 -1.50581e-40 -6.7503e-41 -1.74477e-40 8.5371e-41 1.75787e-40 -1.70813e-40
3.6941e-41 1.28294e-40 -1.49748e-40 6.1949e-41 -1.725e-42 9.1533e-41 -5.1199e-41 -1.32818e-40
-6.2632e-41 1.41185e-40 8.6019e-41 -5.7554e-41 1.9251e-40 -1.51891e-40 -2.6102e-41 6.2383e-41
-1.64773e-40 7.8454e-41 -4.8116e-41 0.029665645 -0.0077239983 -0.0038255525 0.02157267 0.022237552
0.04955125 0.016875157 0.041079972 -0.006179358 0.031561814 0.07107907 0.033236377 0.04453984
0.021145003 0.011423837 0.01508896 0.104059905 0.135603 0.052635208 0.046658743 0.012394593
0.03051733 0.054386415 0.16269729 0.21257325 0.11168083 0.06268887 0.03529484 -0.0048666825
0.0055871583 0.10355752 0.14542942 0.053783555 0.03241571 0.0058235424 -0.0026842842 -0.032305736
0.021835446 0.052080724 0.009976883 0.026016602 0.002982627 0.026869697 -0.0077101025 0.008386792
0.039230913 0.028839674 0.053010188 0.034606714 -4.128e-42 8.2068e-41 1.27098e-40 1.78622e-40
8.5373e-41 -1.27671e-40 1.05722e-40 -4.6101e-41 -7.1346e-41 8.5426e-41 -1.2592e-40 -1.15527e-40
-1.03723e-40 4.024e-41 -3.524e-42 1.07931e-40 -1.87198e-40 -7.057e-42 3.6382e-41 1.2129e-40
1.01747e-40 5.3747e-41 -8.578e-41 -1.38447e-40 5.1608e-41 1.91113e-40 -1.18487e-40 -1.10118e-40
-1.63621e-40 3.2957e-41 -2.9713e-41 1.24305e-40 6.7384e-41 9.5679e-41 2.099e-41 1.31634e-40
-1.06307e-40 -7.1702e-41 4.0915e-41 1.2465e-40 1.08396e-40 -1.08777e-40 -8.5427e-41 -1.47823e-40
4.2116e-41 -8.3614e-41 -1.618e-42 -7.9924e-41 -3.7004e-41 -0.010954236 -0.044177905 -0.06567499
-0.054080278 -0.033688415 0.0048193373 -0.07107317 0.0028552562 -0.0643403 -0.08852204 -0.080553964

e_conv4.bias f4 [3]
00000000: 4b0d 713d e48b 0000 f257 153d
0.058850568 5.0183e-41 0.036460824

e_conv5.weight f4 [3, 12, 3, 3]
00000000: b344 cbbb 96a9 803d 6474 0cbc 360c 2a3d
00000010: 3258 3e3e eb3d 213d 67bb 46bb 346a 833d
00000020: 1867 c3bb 2016 0000 2b2b 0180 8bed 0080
00000030: 4d03 0000 3370 0080 1b1c 0180 b2b6 0100
00000040: 40d9 0000 1ab4 0180 6d64 14bd d0e2 a23d
00000050: 513c 1ebd ecff 513d b2d4 853e 37dc 433d
00000060: e714 f8bc 53ce ab3d 3a2e 17bd a718 0180
00000070: 9fe5 0000 29fc 0080 3a62 0080 6637 0100
00000080: 240e 0180 ca35 0180 5955 0100 4be0 0100
00000090: d16d 30bc 74fe d33d 53a3 cdbc 9009 983d
000000a0: 584f 703e db23 8f3d 363c 31bc 2067 d13d
000000b0: 9182 5dbc ea1f 0080 6e5b 0080 5308 0000
000000c0: d22d 0080 0934 0100 8a37 0080 d93f 0080
000000d0: 2608 0100 983c 0180 b742 4b3d 9062 f03d
000000e0: bb91 063d e1f9 e53d 94c4 423e 37b9 b23d
000000f0: 3444 323d e9e0 d83d b1c3 863c 1861 0180
00000100: a9e0 0080 d6e8 0000 5f26 0100 74f8 0000
00000110: 9c78 0180 b906 0080 8896 0100 1913 0080
00000120: cfea 2dbd d21a 3fbd f5a4 5fbd 19df 1dbd
00000130: 88b5 1dbd c558 40bd 6522 06bd 9134 10bd
00000140: b75e 29bd f607 a33d 38cb 353e 133e 4b3e
00000150: 95be 8e3d 52c8 3a3e f96e 543e 2d91 a93c
00000160: 0374 fc3d 7d9c 0f3e 2a79 0100 f3d8 0180
00000170: 3129 0100 812d 0180 5cbd 0080 4e9e 0080
00000180: daa2 0000 162c 0100 0e9a 0080 222f 0f3e
00000190: 6590 d43d 1813 6e3d 75a2 483e eb12 233e
000001a0: feff c53d 3bf5 4c3e dc18 2c3e 747d e63d
000001b0: c8f7 8cbc 35ca 593d 2ac5 9abc 7bbb 013d
000001c0: 054c 363e 1337 f73c 359b 6fbc 3557 5e3d
000001d0: 8d0d 8bbc 3c1d 0100 c829 0080 dd23 0000
000001e0: d66c 0000 1dc1 0100 4e47 0180 3db1 0000
000001f0: ee63 0100 c856 0000 2fb1 a8bc d2fe c33d
00000200: 90e5 c1bc b8a6 893d 64d1 8e3e 0823 813d
00000210: 0d8a 7bbc 6e9a ca3d da0a b0bc eac7 0080
00000220: 6219 0000 e50b 0080 4cf2 0080 5696 0080
00000230: 8249 0080 a11e 0100 2e0d 0000 6035 0180
00000240: 562f 60bc dc5b de3d 545b b3bc b634 9d3d
00000250: e3c3 773e f3f1 9e3d d161 66bc 6d5a d53d
00000260: f03a 27bc e57a 0000 9e4f 0100 1ad4 0180
00000270: 4341 0100 238b 0100 77b0 0180 9c08 0180
00000280: 4789 0000 e09a 0080 a072 163d e74b de3d
00000290: ca7a a23c 5e32 d53d 2e55 413e ca3b 983d
000002a0: 5df7 0e3d 53f0 c93d 8355 eb3b b0f9 0080
000002b0: d287 0180 bc71 0000 2fd6 0000 fe1c 0080
000002c0: cae3 0080 9a33 0180 ccc4 0080 9962 0080
000002d0: 6afc 32bd 4adc 40bd fe34 61bd f66d 1dbd
000002e0: 8e6c 16bd 4ec1 3cbd f2fa 0ebd 8179 14bd
000002f0: 5565 30bd 5980 8e3d 1664 2d3e 2b59 3d3e
00000300: e34f 8f3d fcda 3c3e 8e56 453e fa97 b43c
00000310: 099c e83d cecd 053e 9cb3 0000 8877 0180
00000320: 8873 0000 ef8a 0180 f832 0000 de93 0100
00000330: 2139 0180 edc2 0080 457b 0180 6eea 063e
00000340: 6bad d73d a61a 6f3d 3342 3b3e a632 203e
00000350: ac4d c23d 8ce3 3f3e 4500 213e 1c7c d73d
00000360: bc58 f3bc 5dd3 243d 9550 fdbc a7f0 9f3c
00000370: 610e 293e ec3f 973c a1ba e0bc 1b86 273d
00000380: 8e9f f2bc 29bf 0080 f020 0000 c629 0280
00000390: 531a 0280 aa9b 0100 accb 0180 64d4 0000
000003a0: a1e5 0080 e714 0180 c4c8 19bc 107c da3d
000003b0: a01f 3ebc ec3e a23d 5ad1 933e e7c0 993d
000003c0: f367 51bb 2985 df3d ac80 0dbc 7f1c 0180
000003d0: 9674 0100 1388 0000 d910 0100 0fbe 0100
000003e0: b9de 0080 8423 0080 0450 0100 5768 0000
000003f0: 67d4 8ebb c1c1 f43d bc88 31bc bae6 b93d
-0.006203258 0.06282346 -0.008572672 0.04151555 0.18588331 0.03936569 -0.0030324103 0.06416741
-0.0059632175 7.937e-42 -1.07321e-40 -8.5214e-41 1.184e-42 -4.025e-41 -1.01918e-40 1.57374e-40
7.7935e-41 -1.56444e-40 -0.036228586 0.07953417 -0.03863174 0.051269457 0.26138836 0.047817435
-0.030283405 0.083889626 -0.03690932 -1.00679e-40 8.2373e-41 -9.0458e-41 -3.5237e-41 1.11709e-40
-9.6908e-41 -1.11131e-40 1.22452e-40 1.72297e-40 -0.01076837 0.103512675 -0.025102293 0.07423699
0.23467767 0.06989261 -0.010817578 0.10224748 -0.013519899 -1.1449e-41 -3.2799e-41 2.986e-42
-1.6437e-41 1.10502e-40 -1.9924e-41 -2.2904e-41 9.4759e-41 -1.13572e-40 0.04962417 0.11737549
0.032853823 0.11229301 0.19020301 0.08726733 0.043522075 0.10589773 0.016450735 -1.26666e-40
-8.0593e-41 8.3526e-41 1.056e-40 8.9128e-41 -1.35102e-40 -2.412e-42 1.45836e-40 -6.851e-42
-0.04246026 -0.046656437 -0.054600675 -0.03854284 -0.0385032 -0.046959657 -0.032747645 -0.03520638
-0.041350093 0.07960503 0.17753303 0.19847898 0.069699444 0.18240479 0.20745458 0.020699108
0.12326815 0.1402454 1.35301e-40 -1.69662e-40 1.06612e-40 -1.08159e-40 -6.793e-41 -5.6789e-41
5.842e-41 1.0765e-40 -5.5264e-41 0.13982823 0.103791036 0.058123678 0.19593222 0.15925185
0.09667967 0.20015423 0.16806358 0.11254397 -0.017207995 0.053171355 -0.018892843 0.031672936
0.17802437 0.030177629 -0.014624407 0.054282386 -0.016974235 1.02323e-40 -1.4988e-41 1.2865e-41
3.9043e-41 1.61111e-40 -1.17415e-40 6.3581e-41 1.27684e-40 3.1131e-41 -0.0205923 0.095700875
-0.023669034 0.06721252 0.27894127 0.0630551 -0.015352738 0.098927364 -0.02148955 -7.1716e-41
9.106e-42 -4.267e-42 -8.692e-41 -5.393e-41 -2.637e-41 1.02823e-40 4.728e-42 -1.10983e-40
-0.013683161 0.108573645 -0.021894135 0.076760694 0.24195819 0.07760992 -0.014061407 0.10417638
-0.010206923 4.4086e-41 1.20397e-40 -1.67923e-40 1.15247e-40 1.41748e-40 -1.55139e-40 -9.4924e-41
4.9246e-41 -5.5559e-41 0.03673041 0.10854321 0.019833941 0.104099974 0.1888015 0.07433279
0.034903873 0.09860291 0.0071818247 -8.9571e-41 -1.40559e-40 4.08e-41 7.6835e-41 -1.04e-41
-8.1715e-41 -1.10347e-40 -7.0597e-41 -3.537e-41 -0.043697752 -0.047085084 -0.054982178 -0.038434945
-0.03672462 -0.046082787 -0.03490729 -0.036248688 -0.043065388 0.06958074 0.16932711 0.18491046
0.06997659 0.18442911 0.19271299 0.022045124 0.11357886 0.1306679 6.4432e-41 -1.34715e-40
4.1445e-41 -1.41675e-40 1.8284e-41 1.4488e-40 -1.1233e-40 -6.9926e-41 -1.36056e-40 0.13175365
0.10531124 0.058375023 0.18286972 0.15644321 0.09487471 0.18739146 0.15722759 0.10521719
-0.029705398 0.040240634 -0.030922214 0.019523932 0.16509391 0.018463098 -0.027432742 0.040899377
-0.029617097 -6.8575e-41 1.1816e-41 -1.98656e-40 -1.93114e-40 1.47677e-40 -1.64899e-40 7.6191e-41
-8.2375e-41 -9.9334e-41 -0.009386245 0.10668194 -0.01160422 0.07922158 0.2887066 0.07507496
-0.0031952828 0.1091407 -0.008636635 -1.02058e-40 1.33659e-40 4.8814e-41 9.7879e-41 1.60016e-40
-7.9898e-41 -1.274e-41 1.2054e-40 3.743e-41 -0.0043588164 0.11951018 -0.010835823 0.09077211

e_conv5.bias f4 [3]
00000000: d4ab 573e 13e8 683e d833 8d3e
0.21061641 0.2274478 0.27578616
