weight/dehazer.pthEpoch9.pth (torch, 10495 bytes, 10 tensors)

e_conv1.weight f4 [3, 3, 1, 1]
0	0x8000ff38	-9.1555e-41
1	0x8000ff3a	-9.1558e-41
2	0x80016591	-1.2827e-40
3	0x00008e66	5.1083e-41
4	0x0000c7d2	7.1682e-41
5	0x0000254f	1.3384e-41
6	0xbe0bedd8	-0.13664949
7	0xbdcb9ae7	-0.09941655
8	0xbd6151e0	-0.055009723

e_conv1.bias f4 [3]
0	0x80007452	-4.1728e-41
1	0x000084b8	4.761e-41
2	0x3e447b87	0.19187747

e_conv2.weight f4 [3, 3, 3, 3]
0	0x80003a17	-2.0839e-41
1	0x800060b2	-3.4688e-41
2	0x80014878	-1.17832e-40
3	0x800038f1	-2.0427e-41
4	0x80000c32	-4.375e-42
5	0x8001fcda	-1.82542e-40
6	0x8000d9ae	-7.8089e-41
7	0x000103a0	9.3136e-41
8	0x8001befb	-1.60346e-40
9	0x80005762	-3.1347e-41
10	0x0000553d	3.0578e-41
11	0x80011ee5	-1.02918e-40
12	0x800038b2	-2.0338e-41
13	0x00006a27	3.808e-41
14	0x8000137e	-6.992e-42
15	0x80012507	-1.05118e-40
16	0x8001383f	-1.12013e-40
17	0x800132dc	-1.1008e-40
18	0x3deeb313	0.116552494
19	0x3e3fc946	0.18729123
20	0x3e1cdd26	0.15318736
21	0x3e2eb69b	0.17061846
22	0x3e45e9b2	0.19327429
23	0x3e1bfac4	0.15232378
24	0x3de76194	0.112979084
25	0x3e3f4195	0.18677361
26	0x3e10c523	0.14137702
27	0x00002935	1.4782e-41
28	0x0001b9ef	1.58536e-40
29	0x80009054	-5.1775e-41
30	0x00015919	1.23798e-40
31	0x8000710d	-4.0555e-41
32	0x000170da	1.32319e-40
33	0x0001c3ab	1.62028e-40
34	0x800099a3	-5.5114e-41
35	0x0000196b	9.118e-42
36	0x00007045	4.0275e-41
37	0x800125fc	-1.05462e-40
38	0x000079e0	4.372e-41
39	0x80017c1a	-1.36355e-40
40	0x8001f8b4	-1.81053e-40
41	0x0000664a	3.6694e-41
42	0x800133fc	-1.10484e-40
43	0x000146f7	1.17293e-40
44	0x80003862	-2.0226e-41
45	0x80020d17	-1.88367e-40
46	0x8001fbfb	-1.82229e-40
47	0x0000b324	6.4264e-41
48	0x00017ba2	1.36187e-40
49	0x000198b0	1.4661e-40
50	0x00003cfa	2.1874e-41
51	0x0000eca9	8.4898e-41
52	0x80022f48	-2.00632e-40
53	0x0000aa3e	6.1071e-41
54	0x80015e59	-1.25681e-40
55	0x80014330	-1.15938e-40
56	0x8001e753	-1.74819e-40
57	0x8001fc1c	-1.82275e-40
58	0x00004913	2.6214e-41
59	0x800109ca	-9.5347e-41
60	0x000150c6	1.20812e-40
61	0x0001871a	1.40301e-40
62	0x00015ffb	1.26267e-40
63	0x0000bc9c	6.766e-41
64	0x00015b1b	1.24518e-40
65	0x00015100	1.20893e-40
66	0x80011bae	-1.01765e-40
67	0x80003303	-1.83e-41
68	0x8000e76f	-8.3023e-41
69	0x80008a74	-4.9668e-41
70	0x000163b6	1.27605e-40
71	0x0000342c	1.8716e-41
72	0x3e1af249	0.15131487
73	0x3e6568de	0.22403285
74	0x3e0c0b06	0.1367608
75	0x3e5f4490	0.21803498
76	0x3e977d45	0.2958776
77	0x3e5251f2	0.20539072
78	0x3e001d3a	0.12511149
79	0x3e72aee0	0.23699522
80	0x3dfac589	0.12244708

e_conv2.bias f4 [3]
0	0x3c187a18	0.009306453
1	0x000234d5	2.02624e-40
2	0x3e4c0bd7	0.19926392

e_conv3.weight f4 [3, 6, 5, 5]
0	0x8000cd13	-7.3567e-41
1	0x8001b6af	-1.5737e-40
2	0x0000cb9c	7.3041e-41
3	0x00000503	1.798e-42
4	0x8001b476	-1.56573e-40
5	0x800019ac	-9.21e-42
6	0x80006922	-3.7715e-41
7	0x8000216f	-1.1994e-41
8	0x00008847	4.8887e-41
9	0x0001866c	1.40057e-40
10	0x000232e0	2.01922e-40
11	0x8000fd52	-9.0874e-41
12	0x00011bca	1.01804e-40
13	0x800044e7	-2.4718e-41
14	0x8000d18d	-7.5173e-41
15	0x00011626	9.9781e-41
16	0x00020769	1.86329e-40
17	0x80015b3c	-1.24564e-40
18	0x000010ed	6.072e-42
19	0x80006e38	-3.9539e-41
20	0x0001103b	9.7658e-41
21	0x8001aa56	-1.5294e-40
22	0x00012896	1.06395e-40
23	0x800003c6	-1.354e-42
24	0x0001793c	1.35326e-40
25	0x00019828	1.46419e-40
26	0x0001763c	1.3425e-40
27	0x00012861	1.06321e-40
28	0x0001083e	9.4792e-41
29	0x00016716	1.28816e-40
30	0x800185c4	-1.39822e-40
31	0x8001dc30	-1.70824e-40
32	0x00010597	9.3841e-41
33	0x00018f30	1.43201e-40
34	0x8001fee7	-1.83277e-40
35	0x800161f9	-1.26981e-40
36	0x80013019	-1.0909e-40
37	0x800109dc	-9.5372e-41
38	0x80011eec	-1.02928e-40
39	0x000235a8	2.02919e-40
40	0x80009593	-5.3657e-41
41	0x0000097d	3.404e-42
42	0x800166e3	-1.28744e-40
43	0x8000b5a8	-6.5166e-41
44	0x800179d3	-1.35538e-40
45	0x00015de5	1.25519e-40
46	0x8000248e	-1.3113e-41
47	0x0000e070	8.0513e-41
48	0x8001f199	-1.78504e-40
49	0x00009f47	5.7138e-41
50	0x0001677b	1.28957e-40
51	0x80017fe7	-1.37718e-40
52	0x8001fcae	-1.8248e-40
53	0x00014fbe	1.20442e-40
54	0x00001634	7.965e-42
55	0x8000c17b	-6.9408e-41
56	0x00018cb8	1.42316e-40
57	0x00016d3d	1.31023e-40
58	0x00016d42	1.3103e-40
59	0x0000b443	6.4666e-41
60	0x8001a119	-1.49626e-40
61	0x80002e3d	-1.6587e-41
62	0x8000b020	-6.3182e-41
63	0x8000419f	-2.354e-41
64	0x0001140a	9.9024e-41
65	0x8001b6c2	-1.57397e-40
66	0x0000e748	8.2968e-41
67	0x80018efb	-1.43127e-40
68	0x80010b57	-9.5903e-41
69	0x00016557	1.2819e-40
70	0x8000a530	-5.9258e-41
71	0x800152f5	-1.21595e-40
72	0x00011d22	1.02286e-40
73	0x800012aa	-6.695e-42
74	0x0001a832	1.52173e-40
75	0x0000c018	6.891e-41
76	0x00016b02	1.30223e-40
77	0x00016b92	1.30424e-40
78	0x00013528	1.10904e-40
79	0x80009771	-5.4327e-41
80	0x8000378b	-1.9925e-41
81	0x0000b836	6.6082e-41
82	0x80015061	-1.2067e-40
83	0x00020772	1.86342e-40
84	0x8000eee5	-8.5699e-41
85	0x00012fd0	1.08987e-40
86	0x80011132	-9.8004e-41
87	0x0000df11	8.0021e-41
88	0x0000082a	2.929e-42
89	0x0001f276	1.78814e-40
90	0x800080bd	-4.6183e-41
91	0x0000a8c5	6.0543e-41
92	0x8000c327	-7.0007e-41
93	0x80001f64	-1.1261e-41
94	0x80014704	-1.17311e-40
95	0x0000a5ab	5.943e-41
96	0x8000dfec	-8.0328e-41
97	0x000082a4	4.6865e-41
98	0x800111c0	-9.8203e-41
99	0x00002f59	1.6985e-41
100	0x0001619a	1.26848e-40
101	0x8000b47f	-6.475e-41
102	0x800173bd	-1.33355e-40
103	0x000020d6	1.178e-41
104	0x80021408	-1.90857e-40
105	0x80011c03	-1.01884e-40
106	0x80017e31	-1.37104e-40
107	0x800069d8	-3.797e-41
108	0x80015071	-1.20692e-40
109	0x8000325a	-1.8063e-41
110	0x8000f74b	-8.8712e-41
111	0x00012b42	1.07353e-40
112	0x800053c1	-3.0045e-41
113	0x0000adf3	6.2401e-41
114	0x0001fbbd	1.82142e-40
115	0x00010117	9.2226e-41
116	0x8000d8ab	-7.7726e-41
117	0x0000083b	2.953e-42
118	0x80016420	-1.27754e-40
119	0x000188a5	1.40854e-40
120	0x00005e8e	3.392e-41
121	0x8001b049	-1.55075e-40
122	0x800122f9	-1.04381e-40
123	0x0000679e	3.7171e-41
124	0x00011bbf	1.01789e-40
125	0x000147ba	1.17566e-40
126	0x0000d1ff	7.5332e-41
127	0x800158b6	-1.23659e-40
128	0x8001ad18	-1.5393e-40
129	0x80005ccd	-3.329e-41
130	0x80017536	-1.33883e-40
131	0x0000d4ec	7.6382e-41
132	0x0000573a	3.1291e-41
133	0x80000f24	-5.431e-42
134	0x8000b9db	-6.6672e-41
135	0x8000e994	-8.3792e-41
136	0x0001d179	1.6698e-40
137	0x8000484e	-2.5938e-41
138	0x80012040	-1.03405e-40
139	0x0000beac	6.84e-41
140	0x80014446	-1.16327e-40
141	0x00003661	1.9507e-41
142	0x800193fd	-1.44924e-40
143	0x0000816d	4.6429e-41
144	0x80008b94	-5.0071e-41
145	0x000070f9	4.0527e-41
146	0x80015f23	-1.25964e-40
147	0x800094c0	-5.3361e-41
148	0x80005846	-3.1667e-41
149	0x0000f4b0	8.7777e-41
150	0x0001653a	1.28149e-40
151	0x800170ea	-1.32341e-40
152	0x800235c0	-2.02953e-40
153	0x8002078b	-1.86377e-40
154	0x00014df7	1.19804e-40
155	0x0001c1a0	1.61295e-40
156	0x80009168	-5.2162e-41
157	0x8001bdea	-1.59964e-40
158	0x8000b3c8	-6.4493e-41
159	0x8000d0b8	-7.4874e-41
160	0x0000c29f	6.9817e-41
161	0x8001b4bb	-1.5667e-40
162	0x80008d72	-5.0741e-41
163	0x00016b67	1.30364e-40
164	0x80000dc2	-4.935e-42
165	0x80017a73	-1.35762e-40
166	0x0000aff7	6.3124e-41
167	0x8000a365	-5.8615e-41
168	0x00002376	1.2721e-41
169	0x00017d8e	1.36876e-40
170	0x00010885	9.4892e-41
171	0x0000c62b	7.1089e-41
172	0x00010895	9.4914e-41
173	0x00004139	2.3397e-41
174	0x8001d6cd	-1.68891e-40
175	0x800211d6	-1.9007e-40
176	0x80009ad5	-5.5543e-41
177	0x800035f1	-1.935e-41
178	0x800085d3	-4.8007e-41
179	0x80018681	-1.40086e-40
180	0x8001f523	-1.79774e-40
181	0x800139d6	-1.12583e-40
182	0x00011e5f	1.0273e-40
183	0x00011010	9.7598e-41
184	0x80014b74	-1.18903e-40
185	0x800194e4	-1.45247e-40
186	0x00004433	2.4465e-41
187	0x00000b23	3.995e-42
188	0x0000e9a0	8.3809e-41
189	0x00013923	1.12332e-40
190	0x000233e3	2.02284e-40
191	0x00017056	1.32134e-40
192	0x8001ffcb	-1.83597e-40
193	0x00012d36	1.08054e-40
194	0x8001c705	-1.6323e-40
195	0x0000748e	4.1812e-41
196	0x8000cebc	-7.4162e-41
197	0x8000a64c	-5.9656e-41
198	0x00022d76	1.9998e-40
199	0x8001d613	-1.68631e-40
200	0x0001029c	9.2772e-41
201	0x8001ee5c	-1.77343e-40
202	0x0000f508	8.79e-41
203	0x80008805	-4.8795e-41
204	0x80022830	-1.98088e-40
205	0x00013f47	1.14535e-40
206	0x8000ab12	-6.1368e-41
207	0x8000ce62	-7.4036e-41
208	0x000057dc	3.1518e-41
209	0x8001eb88	-1.76328e-40
210	0x000100bb	9.2098e-41
211	0x00010b7d	9.5957e-41
212	0x0001470f	1.17327e-40
213	0x8000eab9	-8.4203e-41
214	0x00004a5a	2.6672e-41
215	0x0000c703	7.1392e-41
216	0x80015127	-1.20947e-40
217	0x0000df6f	8.0153e-41
218	0x80017f27	-1.37449e-40
219	0x00015971	1.23921e-40
220	0x80005466	-3.0276e-41
221	0x800100fe	-9.2191e-41
222	0x8001b1d1	-1.55624e-40
223	0x000232a0	2.01832e-40
224	0x8000bfa7	-6.8752e-41
225	0x8000af7e	-6.2955e-41
226	0x8000ae39	-6.25e-41
227	0x8001266b	-1.05617e-40
228	0x00012cc0	1.07889e-40
229	0x00009886	5.4715e-41
230	0x80001f94	-1.1328e-41
231	0x8001cffe	-1.66449e-40
232	0x8001477c	-1.17479e-40
233	0x00016de5	1.31258e-40
234	0x00004cec	2.7594e-41
235	0x800116a5	-9.9959e-41
236	0x80005956	-3.2048e-41
237	0x8000337b	-1.8468e-41
238	0x0000e497	8.2003e-41
239	0x8001624b	-1.27096e-40
240	0x000018d7	8.911e-42
241	0x80002390	-1.2757e-41
242	0x000140b0	1.15041e-40
243	0x0000e248	8.1174e-41
244	0x8000ae1a	-6.2456e-41
245	0x8000c4bd	-7.0576e-41
246	0x00017f02	1.37397e-40
247	0x80013de9	-1.14045e-40
248	0x8001acb7	-1.53794e-40
249	0x8001109c	-9.7794e-41
250	0x0000ecb7	8.4917e-41
251	0x000087a0	4.8653e-41
252	0x00000c09	4.317e-42
253	0x80002d3e	-1.623e-41
254	0x0000ffc7	9.1756e-41
255	0x80016b26	-1.30273e-40

e_conv3.bias f4 [3]
0	0x800162ad	-1.27234e-40
1	0x800052da	-2.9722e-41
2	0x3d513703	0.051077854

e_conv4.weight f4 [3, 6, 7, 7]
0	0xbcd1c07f	-0.025604485
1	0xbcc31a1c	-0.02381616
2	0xbc190cc3	-0.009341422
3	0x3c79ac04	0.015238766
4	0xbc864286	-0.016389143
5	0xbcd2dd94	-0.025740422
6	0xbd14e32f	-0.03634947
7	0xbcc96c83	-0.024587875
8	0xbcbb4154	-0.0228583
9	0x3d04f8f2	0.032463975
10	0x3d1024b5	0.035191257
11	0x3adb0e2c	0.0016712598
12	0xbcbb2b56	-0.022847813
13	0xbca94770	-0.020663947
14	0xbbda3ed2	-0.006660321
15	0x3c9c72c1	0.019097688
16	0x3d869d38	0.06572956
17	0x3dcff8c5	0.10154871
18	0x3d8839aa	0.066516235
19	0x3bfb5aee	0.007670752
20	0xbc4dd0d8	-0.012561999
21	0x3c87773f	0.016536353
22	0x3d217955	0.039422352
23	0x3dd71dbe	0.1050372
24	0x3e0bcdcb	0.13652723
25	0x3dcb772b	0.09934839
26	0x3d202e7d	0.039106835
27	0x3c2e49bf	0.0106377
28	0xbb7c6d9b	-0.0038517478
29	0x3c9a7747	0.018855704
30	0x3d91dd53	0.07122292
31	0x3dbfad78	0.093592584
32	0x3d92f9ff	0.07176589
33	0x3cb4ed86	0.022085916
34	0xbc0e18bd	-0.00867289
35	0xbcce6913	-0.025196588
36	0xbbc6d93a	-0.006068376
37	0x3cb46203	0.022019392
38	0x3d374e1c	0.044752225
39	0x3c12dc42	0.008963646
40	0x3a70574d	0.0009168282
41	0xbcd4bfe7	-0.025970412
42	0xbd02b5c2	-0.03191162
43	0xbd1334cc	-0.035939023
44	0xbc191db1	-0.009345458
45	0x3bb1d3ec	0.0054268744
46	0xbbd33c3a	-0.0064463886
47	0xbcd929a4	-0.026509114
48	0xbd1a2cf8	-0.03764054
49	0x0000b895	6.6216e-41
50	0x80014528	-1.16644e-40
51	0x8000f776	-8.8772e-41
52	0x80004b2b	-2.6965e-41
53	0x000068ec	3.7639e-41
54	0x80019a06	-1.47089e-40
55	0x0001cdab	1.65615e-40
56	0x00002115	1.1868e-41
57	0x000103eb	9.3241e-41
58	0x0001299b	1.06761e-40
59	0x80004deb	-2.7952e-41
60	0x800047b1	-2.5718e-41
61	0x0001178a	1.0028e-40
62	0x0001482b	1.17724e-40
63	0x8002004f	-1.83782e-40
64	0x0000d1c5	7.5251e-41
65	0x0001fa71	1.81677e-40
66	0x800181dd	-1.38422e-40
67	0x000025a6	1.3506e-41
68	0x8000659d	-3.6452e-41
69	0x0000ac65	6.1844e-41
70	0x80000b14	-3.974e-42
71	0x000041da	2.3623e-41
72	0x000003d4	1.373e-42
73	0x80016985	-1.29689e-40
74	0x00000d73	4.825e-42
75	0x000097a6	5.4401e-41
76	0x0001ebe0	1.76452e-40
77	0x0002147b	1.91018e-40
78	0x80010d8b	-9.6694e-41
79	0x8001598b	-1.23957e-40
80	0x00011016	9.7606e-41
81	0x8000d1f4	-7.5317e-41
82	0x8000a2ab	-5.8354e-41
83	0x0000f623	8.8297e-41
84	0x0000783c	4.3132e-41
85	0x00004342	2.4128e-41
86	0x80016017	-1.26306e-40
87	0x8001e8aa	-1.753e-40
88	0x8001b044	-1.55068e-40
89	0x80023566	-2.02827e-40
90	0x0001d7e5	1.69284e-40
91	0x800165d3	-1.28363e-40
92	0x000019ab	9.208e-42
93	0x00012c56	1.0774e-40
94	0x800052ad	-2.9658e-41
95	0x80011637	-9.9805e-41
96	0x0000a8b4	6.0519e-41
97	0x80008ee8	-5.1265e-41
98	0xbd2cde73	-0.04220433
99	0xbd2c07b0	-0.04199952
100	0xbbf538cf	-0.0074835788
101	0x3bed5805	0.0072431588
102	0xbc5e02f6	-0.013550511
103	0xbd1ea78f	-0.038734015
104	0xbb2d4f79	-0.0026445074
105	0xbd1092f2	-0.035296388
106	0xbd59f986	-0.05321648
107	0xbcb13550	-0.021631867
108	0x3ceb80c4	0.028747924
109	0x3c42baf7	0.011885396
110	0xbd7941b6	-0.060853682
111	0xbd48178a	-0.048850574
112	0xbbf25b54	-0.007396141
113	0x3aaafb87	0.0013044932
114	0x3be64637	0.007027413
115	0x3db298e3	0.08720567
116	0x3d12e6af	0.03586453
117	0xbc179fd3	-0.009254414
118	0xbbca590b	-0.0061751655
119	0x3c48be4f	0.012252404
120	0x3c2737db	0.010206188
121	0x3d924b97	0.07143324
122	0x3debaba4	0.11507347
123	0x3d5aea7a	0.05344627
124	0x3cd1b488	0.02559878
125	0x3c17fa17	0.009275935
126	0xbcf1033a	-0.029420484
127	0xbc1b04a2	-0.009461554
128	0x3d210778	0.039313763
129	0x3db05235	0.0860943
130	0x3cb37ab6	0.0219091
131	0x3ab963f6	0.001414417
132	0xbc97c776	-0.018527728
133	0xbd050c3d	-0.032482374
134	0xbd01bc46	-0.031673692
135	0x3af33d17	0.0018557635
136	0x3d185921	0.037194375
137	0x3b1b745d	0.002372048
138	0xbc16623c	-0.009178694
139	0xbcd5a112	-0.02607778
140	0xbd45e3ed	-0.04831307
141	0xbd2f4fa3	-0.042800557
142	0xbb58dc54	-0.003309031
143	0x3d4050aa	0.046951927
144	0x3bb54e02	0.005532981
145	0xbc8c97c2	-0.017162208
146	0xbcfe5ad1	-0.031049164
147	0x00001f2b	1.1181e-41
148	0x00008390	4.7196e-41
149	0x00005b57	3.2767e-41
150	0x0001999d	1.46942e-40
151	0x0000e9d0	8.3876e-41
152	0x8001b379	-1.56218e-40
153	0x80012ae2	-1.07219e-40
154	0x8000df97	-8.0209e-41
155	0x000216b2	1.91813e-40
156	0x00017d34	1.3675e-40
157	0x800056d6	-3.1151e-41
158	0x0001589b	1.23621e-40
159	0x8001f5fd	-1.8008e-40
160	0x800056a4	-3.1081e-41
161	0x80000cda	-4.61e-42
162	0x80021482	-1.91028e-40
163	0x0001254d	1.05216e-40
164	0x80005129	-2.9115e-41
165	0x000144f3	1.1657e-40
166	0x00007ef3	4.5541e-41
167	0x80005d11	-3.3386e-41
168	0x0000ee9b	8.5596e-41
169	0x0000dfe9	8.0324e-41
170	0x0000d8d4	7.7783e-41
171	0x80009db3	-5.6572e-41
172	0x80012b0a	-1.07275e-40
173	0x80001a71	-9.485e-42
174	0x0000b70f	6.5669e-41
175	0x800056ca	-3.1134e-41
176	0x0000e359	8.1557e-41
177	0x8000d3fd	-7.6047e-41
178	0x8001471c	-1.17345e-40
179	0x000121f4	1.04016e-40
180	0x800085ff	-4.8069e-41
181	0x0000d4a5	7.6282e-41
182	0x00016948	1.29603e-40
183	0x0000ff26	9.153e-41
184	0x80007042	-4.027e-41
185	0x00018562	1.39684e-40
186	0x0001847e	1.39365e-40
187	0x00010cbb	9.6402e-41
188	0x00015e7f	1.25734e-40
189	0x00016dc5	1.31213e-40
190	0x000167e6	1.29107e-40
191	0x80019014	-1.43521e-40
192	0x0000235d	1.2686e-41
193	0x0000d5bd	7.6675e-41
194	0x8001efa1	-1.77798e-40
195	0x00020806	1.86549e-40
196	0x800012d7	-6.758e-42
197	0x00019740	1.46094e-40
198	0x000126b6	1.05722e-40
199	0x80015baa	-1.24718e-40
200	0x00019022	1.4354e-40
201	0x8000d4ce	-7.634e-41
202	0x00015705	1.23052e-40
203	0x000008a0	3.094e-42
204	0x0001086d	9.4858e-41
205	0x8000e99a	-8.38e-41
206	0x0001752a	1.33866e-40
207	0x00000c48	4.406e-42
208	0x000038f1	2.0427e-41
209	0x80001bad	-9.928e-42
210	0x0000a086	5.7585e-41
211	0x8000ef3d	-8.5823e-41
212	0x00014dee	1.19791e-40
213	0x0000ea1e	8.3985e-41
214	0x0001438a	1.16064e-40
215	0x00018c2b	1.42118e-40
216	0x00010b44	9.5877e-41
217	0x00000993	3.435e-42
218	0x0000e2a0	8.1298e-41
219	0x00001dd7	1.0705e-41
220	0x80018d32	-1.42487e-40
221	0x8000fab7	-8.994e-41
222	0x0000ce96	7.4109e-41
223	0x80002819	-1.4384e-41
224	0x8000c315	-6.9982e-41
225	0x80008f4c	-5.1405e-41
226	0x0000ce73	7.406e-41
227	0x0000fdf2	9.1098e-41
228	0x00022402	1.96588e-40
229	0x00016a58	1.29984e-40
230	0x0001731e	1.33132e-40
231	0x800023d0	-1.2847e-41
232	0x0001558a	1.22521e-40
233	0x80000d92	-4.868e-42
234	0x00009cc1	5.6233e-41
235	0x8000cc37	-7.3258e-41
236	0x0000956a	5.36e-41
237	0x0000e618	8.2542e-41
238	0x0000d66b	7.6919e-41
239	0x80009f5c	-5.7167e-41
240	0x80000e42	-5.115e-42
241	0x800075a0	-4.2196e-41
242	0x8000a649	-5.9652e-41
243	0x000194fa	1.45278e-40
244	0x800037ff	-2.0088e-41
245	0xbd092a94	-0.03348787
246	0x3c9b7da1	0.018980803
247	0xbc1e1da3	-0.009650621
248	0x3cad2b5f	0.021138845
249	0x3a278123	0.00063897873
250	0xbcdbc368	-0.026826575
251	0xbd306da3	-0.043073308
252	0xbcbae3db	-0.022813728
253	0xbb385004	-0.0028123865
254	0x3cd65fa7	0.026168657
255	0x3d6fc756	0.05853971

e_conv4.bias f4 [3]
0	0x3d6fa20e	0.058504157
1	0x3e111ba3	0.14170699
2	0x3df0a304	0.11749843

e_conv5.weight f4 [3, 12, 3, 3]
0	0x80004d15	-2.7652e-41
1	0x8000b4ac	-6.4813e-41
2	0x8000eb1a	-8.4339e-41
3	0x00000e91	5.225e-42
4	0x00001891	8.813e-42
5	0x000122f0	1.04369e-40
6	0x0000eb9b	8.452e-41
7	0x8000443c	-2.4478e-41
8	0x0000fdb9	9.1019e-41
9	0x00014ba3	1.18969e-40
10	0x0001716e	1.32526e-40
11	0x8000e8f6	-8.357e-41
12	0x00008af0	4.9841e-41
13	0x80012469	-1.04897e-40
14	0x80005857	-3.169e-41
15	0x000082aa	4.6873e-41
16	0x0000560a	3.0865e-41
17	0x0001108a	9.7769e-41
18	0x3daad65c	0.08341667
19	0x3e3390d4	0.17535716
20	0x3d92138b	0.07132634
21	0x3e1903cc	0.14942855
22	0x3e8d84a6	0.27640265
23	0x3e0f578c	0.1399824
24	0x3da82617	0.0821039
25	0x3e30ab9f	0.17252968
26	0x3da14307	0.078741126
27	0x3dadbdf7	0.084834985
28	0x3e010611	0.1259997
29	0x3da9d085	0.08291725
30	0x3dfbdade	0.12297605
31	0x3e33ddfa	0.17565146
32	0x3df3d319	0.11905498
33	0x3d98ba55	0.07457415
34	0x3e046e3f	0.1293268
35	0x3d9a5301	0.07535363
36	0x00001812	8.635e-42
37	0x8000035b	-1.204e-42
38	0x00007562	4.2109e-41
39	0x800141e0	-1.15467e-40
40	0x80003d9d	-2.2103e-41
41	0x00000478	1.603e-42
42	0x0000a0b1	5.7645e-41
43	0x80013968	-1.12429e-40
44	0x80005853	-3.1685e-41
45	0x3cf2bcb1	0.02963099
46	0x3dd0feeb	0.10204872
47	0x3d196581	0.037450317
48	0x3d0733df	0.033008453
49	0x3e2e89f4	0.17044812
50	0x3d85372b	0.06504663
51	0x3c04bd0d	0.008101714
52	0x3dd0bdbb	0.10192438
53	0x3bc724f7	0.0060774046
54	0x80018d5c	-1.42546e-40
55	0x80014020	-1.14839e-40
56	0x00002d75	1.6307e-41
57	0x00011551	9.9482e-41
58	0x8000425f	-2.381e-41
59	0x8000c847	-7.1846e-41
60	0x80005c5d	-3.3134e-41
61	0x8000ad10	-6.2083e-41
62	0x80001b61	-9.822e-42
63	0x0000db5e	7.8694e-41
64	0x800027e8	-1.4316e-41
65	0x00017f0f	1.37416e-40
66	0x0000c98b	7.23e-41
67	0x0000e0d8	8.0659e-41
68	0x00012028	1.03371e-40
69	0x80016ff4	-1.31997e-40
70	0x80005737	-3.1287e-41
71	0x00010ae5	9.5744e-41
72	0x3dc1eacf	0.09468614
73	0x3de900c3	0.113770984
74	0x3d8f8965	0.07008628
75	0x3deade87	0.11468225
76	0x3e58202f	0.21106027
77	0x3de9a92a	0.114092186
78	0x3da402e9	0.080083676
79	0x3e0d08aa	0.13772836
80	0x3d40aee2	0.04704178
81	0x3d01368a	0.031546153
82	0x3d80c8c6	0.062882945
83	0x3d7d4b1c	0.061839208
84	0x3dc5a964	0.09651449
85	0x3e0de9e8	0.1385876
86	0x3dc8cce7	0.09804707
87	0x3d064e79	0.03278968
88	0x3db8bad9	0.09020013
89	0x3d305aa2	0.043055184
90	0x3c893ce9	0.016752677
91	0x3d8ae4b8	0.06781906
92	0x3c600111	0.013672129
93	0x3d88f2d3	0.0668694
94	0x3de03c4c	0.10949001
95	0x3d89b48f	0.06723892
96	0x3d56a4fc	0.052403435
97	0x3d866cf4	0.0656375
98	0x3c4f0fc9	0.012638041
99	0x3cb491f7	0.022042258
100	0x3d3a842f	0.045536216
101	0x3d1a34e5	0.0376481
102	0x3d119b98	0.035548776
103	0x3daa1132	0.08304061
104	0x3da6504a	0.08120783
105	0x3cab84a3	0.02093727
106	0x3c9c9ef0	0.019118756
107	0x3cba8c50	0.022771984
108	0x80021bae	-1.936e-40
109	0x0001a944	1.52557e-40
110	0x8000d5dd	-7.672e-41
111	0x000194f2	1.45267e-40
112	0x8001bdf0	-1.59972e-40
113	0x80022637	-1.9738e-40
114	0x8001a19a	-1.49807e-40
115	0x80008e6e	-5.1094e-41
116	0x8000a786	-6.0096e-41
117	0x8001890d	-1.41e-40
118	0x8000b590	-6.5132e-41
119	0x0000f762	8.8744e-41
120	0x8000fc49	-9.0503e-41
121	0x00019807	1.46373e-40
122	0x8001f795	-1.80651e-40
123	0x000066b9	3.685e-41
124	0x00017a0e	1.3562e-40
125	0x800014e9	-7.501e-42
126	0x3d7c88aa	0.06165377
127	0x3e2687b4	0.16262704
128	0x3d7aa5b2	0.061193176
129	0x3e05329f	0.13007592
130	0x3e87e2b5	0.2654015
131	0x3e0a4130	0.1350143
132	0x3d7f9e3d	0.062406767
133	0x3e267880	0.16256905
134	0x3d822596	0.06354825
135	0x3da08432	0.07837714
136	0x3df0415a	0.11731215
137	0x3d821e32	0.063534155
138	0x3ddacd54	0.106836945
139	0x3e1ee56e	0.15517208
140	0x3de3ff7b	0.111327134
141	0x3d897795	0.067122616
142	0x3de81a65	0.11333159
143	0x3da1d52b	0.07901987
144	0x00019b1c	1.47478e-40
145	0x00019503	1.45291e-40
146	0x80001a7f	-9.505e-42
147	0x80010c4d	-9.6248e-41
148	0x8000583f	-3.1657e-41
149	0x800180be	-1.3802e-40
150	0x80013a5b	-1.1277e-40
151	0x80014f37	-1.20252e-40
152	0x80014c74	-1.19262e-40
153	0x3d4821c4	0.048860326
154	0x3db25d71	0.08709229
155	0x3d407f67	0.0469965
156	0x3dbcc4e6	0.09217243
157	0x3e22e1e3	0.15906481
158	0x3daff881	0.0859232
159	0x3c59859b	0.013276483
160	0x3d93682f	0.07197606
161	0x3ca7a7b2	0.020465706
162	0x00001a77	9.494e-42
163	0x8000ec17	-8.4693e-41
164	0x800173aa	-1.33328e-40
165	0x8001a481	-1.50848e-40
166	0x80001637	-7.969e-42
167	0x80015992	-1.23967e-40
168	0x0001d821	1.69368e-40
169	0x80008823	-4.8837e-41
170	0x80013c82	-1.13542e-40
171	0x00009bd3	5.5899e-41
172	0x0001652a	1.28126e-40
173	0x80019cc8	-1.48078e-40
174	0x0000e850	8.3338e-41
175	0x80018cd3	-1.42354e-40
176	0x000123d6	1.04691e-40
177	0x8000ea12	-8.3969e-41
178	0x00018d03	1.42421e-40
179	0x8001586b	-1.23554e-40
180	0x3da469ef	0.08028018
181	0x3de1c8ce	0.110246286
182	0x3d3d8ae4	0.046275035
183	0x3df5f6b7	0.12009948
184	0x3e152bec	0.14567536
185	0x3daa55df	0.0831716
186	0x3daf22c0	0.0855155
187	0x3dc68b0a	0.09694488
188	0x3d8d49fd	0.06898878
189	0x3d603341	0.05473638
190	0x3d6c378f	0.057670172
191	0x3d060dec	0.03272812
192	0x3dc86db7	0.097865514
193	0x3e08000b	0.13281266
194	0x3d9e2bac	0.077231735
195	0x3d0ea691	0.03482682
196	0x3d550ae6	0.052012347
197	0x3d5ad61e	0.053426854
198	0x3b728b52	0.003700931
199	0x3dad8cd6	0.08474128
200	0x3b859ca1	0.0040775095
201	0x3d76a2db	0.060213905
202	0x3d9b676f	0.07588088
203	0x3d2446f8	0.040106744
204	0xbc3ca43c	-0.011513766
205	0x3dae3226	0.08505659
206	0x3c216bc9	0.009852358
207	0xbba2e419	-0.004971039
208	0x3da54c42	0.08071186
209	0x3cf9e2e8	0.030503705
210	0x3d56e67b	0.052465897
211	0x3dd13ac7	0.10216289
212	0x3d7f2ee1	0.062300567
213	0x3cb137b4	0.021633007
214	0x3d4ad2dd	0.0495175
215	0x3d4f573a	0.050620295
216	0x0001625f	1.27124e-40
217	0x00021c76	1.93881e-40
218	0x8000857e	-4.7888e-41
219	0x8001ca12	-1.64325e-40
220	0x8001c9a2	-1.64168e-40
221	0x0000acae	6.1946e-41
222	0x80018967	-1.41126e-40
223	0x00012e3e	1.08424e-40
224	0x8001bf13	-1.6038e-40
225	0x00004058	2.3082e-41
226	0x8000f938	-8.9403e-41
227	0x800103e3	-9.323e-41
228	0x0000bb9d	6.7303e-41
229	0x000072c2	4.1167e-41
230	0x8001af44	-1.54709e-40
231	0x80011f01	-1.02958e-40
232	0x0000de54	7.9756e-41
233	0x800104e2	-9.3587e-41
234	0x3d2c7812	0.042106695
235	0x3e0ea915	0.13931687
236	0x3d2aec02	0.04172898
237	0x3de91c05	0.113822974
238	0x3e78e3b5	0.24305613
239	0x3deb6f32	0.11495818
240	0x3d35e6d6	0.044409595
241	0x3e0d652f	0.1380813
242	0x3d34a722	0.044104703
243	0x3d5f2e93	0.054487776
244	0x3db4005c	0.08789131
245	0x3d2e0714	0.04248722
246	0x3daa140c	0.08304605
247	0x3e0f5342	0.13996604
248	0x3dbcec14	0.09224716
249	0x3d84b6bc	0.06480166
250	0x3db9ca42	0.09071781
251	0x3d50034f	0.050784405
252	0x8000d6bc	-7.7032e-41
253	0x8001545e	-1.22101e-40
254	0x8000b0fe	-6.3493e-41
255	0x00005f13	3.4106e-41

e_conv5.bias f4 [3]
0	0x3dca3dc8	0.09875065
1	0x3e319130	0.17340541
2	0x3e37e9c7	0.17960273
